data.pth (torch, 13951 bytes, 6 tensors)

l1.weight f4 [8, 223]
0	0xbef5a379	-0.47976282
1	0xbea51a2e	-0.32246536
2	0x3dfa3ce7	0.122186475
3	0x3ca27a63	0.01983375
4	0x3ef22fdf	0.47302148
5	0xbe2b5c4a	-0.16734424
6	0x3e76d051	0.24102904
7	0xbe68a28a	-0.22718254
8	0xbe97b541	-0.29630473
9	0x3e3b1067	0.18267976
10	0xbe2a4467	-0.16627656
11	0xbd3ff4f3	-0.04686446
12	0xbf0d4c20	-0.5519428
13	0x3f60cbf1	0.8781119
14	0x3f33d6c7	0.702496
15	0x3ec9f9da	0.39448434
16	0x3eb8a238	0.36061263
17	0xbec196a2	-0.37810236
18	0x3f358678	0.7090831
19	0x3e6d2810	0.23159814
20	0x3e6e5a8e	0.23276731
21	0xbeabaf26	-0.33532065
22	0xbed50267	-0.41603395
23	0x3e5e23fd	0.21693416
24	0xbe40f7c8	-0.18844521
25	0x3e7a903f	0.24469088
26	0x3d25cc57	0.040478077
27	0xbed55431	-0.41665795
28	0x3f20e6b3	0.6285202
29	0x3f1804bf	0.5938224
30	0xbd82090f	-0.06349384
31	0xbf05a7cd	-0.5220917
32	0xbe3dda64	-0.1854034
33	0x3f2fb37f	0.68633264
34	0xbe98baec	-0.2983011
35	0xbf1797f1	-0.5921622
36	0x3f3db17d	0.7409895
37	0xbe243c9e	-0.16038749
38	0x3e6cb341	0.23115255
39	0x3e549009	0.2075807
40	0xbef9346a	-0.486728
41	0xbeb9d1e5	-0.3629295
42	0x3e9e8553	0.30961093
43	0x3ee8bc44	0.45456135
44	0xbb67923d	-0.0035334968
45	0x3f33dca8	0.7025857
46	0x3e35356f	0.17696165
47	0xbc7af459	-0.015317046
48	0xb9cea707	-0.00039415827
49	0x3f182273	0.59427565
50	0x3ebc41ba	0.36768895
51	0x3f1e116b	0.6174533
52	0x3d0a2a23	0.03373159
53	0xbd06e7e6	-0.032936
54	0x3e8f9b22	0.28048044
55	0xbd698322	-0.057009824
56	0xbea54127	-0.3227627
57	0x3d587fe0	0.052856326
58	0x3f646394	0.89214444
59	0xbe83070b	-0.2559131
60	0xbbf77cc7	-0.0075527164
61	0x3f6dcb58	0.928884
62	0x3da7c807	0.08192449
63	0x3eb31bc5	0.34982124
64	0x3f01317f	0.5046615
65	0x3ec6954c	0.3878578
66	0x3f23f26a	0.6404177
67	0xbde3f9cf	-0.111316316
68	0x3d135407	0.035968807
69	0xbebf06a2	-0.37309748
70	0x3f19bfb6	0.6005815
71	0xbf03f508	-0.51545763
72	0xbd41c58e	-0.047307543
73	0xbf31f018	-0.6950698
74	0xbe1bcef1	-0.1521566
75	0x3d792ca9	0.060833607
76	0xbf1f47ea	-0.6221911
77	0x3ccae211	0.024766
78	0xbdaa33da	-0.08310671
79	0x3cfb18bb	0.03065144
80	0x3b5c34a3	0.003360071
81	0x3f2a5f72	0.6655189
82	0xbe41c7ff	-0.18923949
83	0x3c812dca	0.015768904
84	0x3da94ef0	0.08267009
85	0xbe752eb9	-0.23943605
86	0xbc3dc0b5	-0.0115815895
87	0xbda9110c	-0.082552046
88	0x3f80db67	1.0066956
89	0xbe918f14	-0.28429472
90	0x3f854116	1.0410488
91	0x3f82364f	1.0172824
92	0x3f40fd90	0.75386906
93	0x3e82151d	0.25406733
94	0x3f72fd61	0.94917876
95	0xbedd52cb	-0.4322723
96	0xbee37720	-0.44426823
97	0x3dcceb5c	0.10005829
98	0x3b5fedcd	0.003416884
99	0x3e6cbad3	0.23118143
100	0x3e31cf69	0.17364277
101	0xbe822e07	-0.2542574
102	0x3ddec648	0.10877663
103	0xbec0c023	-0.3764659
104	0x3f326ab7	0.69694084
105	0xbe037e85	-0.12841232
106	0xbe7131e5	-0.2355419
107	0xbf039ee7	-0.5141434
108	0x3e8d49ef	0.2759547
109	0xbde78529	-0.11304695
110	0xbe36b750	-0.17843366
111	0x3e86ccde	0.26328176
112	0x3ed36bfc	0.41293323
113	0xbe80a60f	-0.25126693
114	0xbefba948	-0.4915259
115	0x3e5985ae	0.21242401
116	0xbd21b522	-0.039479382
117	0x3df23941	0.118273266
118	0x3e895bf1	0.26827958
119	0x3ea6c5c3	0.32572755
120	0x3dfb20c9	0.12262113
121	0x3e9a6cde	0.30161184
122	0x3c4a13f3	0.012333858
123	0x3d32a664	0.043615714
124	0x3f0cd615	0.55014163
125	0x3f389fc4	0.72118783
126	0xbf326ed4	-0.6970036
127	0x3f0efb15	0.5585187
128	0x3d701299	0.058611486
129	0x3ee5da10	0.4489293
130	0x3f348fe9	0.7053209
131	0xbe8396cc	-0.25700986
132	0xbf12cb6b	-0.5734164
133	0x3e7a784a	0.24459949
134	0xbec654ff	-0.38736722
135	0xbe140b96	-0.14457545
136	0xbd43bdfb	-0.0477886
137	0x3e407a62	0.18796685
138	0xbe3d93e1	-0.18513443
139	0xbe428db9	-0.18999375
140	0xbda314c2	-0.079629436
141	0x3e382e25	0.17986353
142	0xbe8db700	-0.2767868
143	0x3d251bee	0.04030984
144	0x3e4cb90d	0.19992466
145	0xbe9c46bc	-0.30522716
146	0xbe2eec81	-0.17082407
147	0xbcded532	-0.027201269
148	0x3dd1081d	0.102066256
149	0x3eb9e415	0.36306825
150	0x3e9dfa90	0.30855227
151	0xbd9bf667	-0.07615357
152	0xbe4b06dc	-0.19826835
153	0x3e27d783	0.16390805
154	0x3ea48947	0.32135984
155	0xbe918e96	-0.28429097
156	0xbed61b00	-0.41817474
157	0xbe250a9d	-0.1611733
158	0xbf0676f9	-0.5252529
159	0xbe3cc1d8	-0.1843332
160	0x3e831a81	0.25606158
161	0x3f2bba8d	0.6708153
162	0xbcc02a57	-0.02345769
163	0xbe9a36c2	-0.30119902
164	0xbda2bf54	-0.07946649
165	0xbe940c95	-0.2891585
166	0xbe837ace	-0.2567963
167	0xbf292cf9	-0.6608425
168	0xbd63e82b	-0.055641335
169	0xbe525306	-0.20539483
170	0x3c7751e8	0.015095212
171	0xbe936dda	-0.28794748
172	0x3f0af080	0.54273224
173	0x3f33cd87	0.70235485
174	0xbf346d24	-0.70479035
175	0xbc121f6d	-0.008918625
176	0x3f2d3199	0.67653805
177	0x3f7f9d4f	0.9984941
178	0x3f2c8abd	0.673992
179	0xbde77646	-0.11301856
180	0xbf1609f8	-0.5860896
181	0x3f0dab1a	0.55339205
182	0x3f139e09	0.5766302
183	0xbe7fa5df	-0.24965619
184	0xbe8fc082	-0.2807656
185	0x3ea315a7	0.31852457
186	0xbe1dd071	-0.15411545
187	0x3e68711c	0.22699398
188	0x3f0c937c	0.54912543
189	0xbe885706	-0.26628894
190	0xbe0b2bf0	-0.1359098
191	0x3d8a70a9	0.067597695
192	0xbe03cab8	-0.128703
193	0xbd8ba366	-0.06818275
194	0xbe7bab10	-0.24576974
195	0x3ea1a793	0.3157316
196	0x3e214b07	0.15751277
197	0xbf3807ec	-0.7188709
198	0x3e0d5561	0.138021
199	0x3f4e52f4	0.80595326
200	0x3e7840e8	0.2424351
201	0x3e9571af	0.29188296
202	0x3eb693c6	0.35659617
203	0x3e297b0f	0.1655085
204	0x3ec7ef40	0.3904972
205	0x3ec548c8	0.3853209
206	0x3d2f4b9f	0.042796727
207	0x3d9a64a2	0.075387254
208	0xbe86a054	-0.26294196
209	0x3f0f8c1a	0.56073153
210	0x3f265be4	0.64983964
211	0xbeaad551	-0.33365873
212	0x3eb9ce20	0.36290073
213	0x3ea372c1	0.31923488
214	0x3d3ffce9	0.046872053
215	0xbdb1b5d7	-0.08677261
216	0x3f485c7a	0.7826611
217	0x3f3155ee	0.69271743
218	0x3eeb28f0	0.4592967
219	0xbc98493e	-0.018589612
220	0x3e61be28	0.22045195
221	0x3e4cc53c	0.19997114
222	0xbf1cd0fc	-0.61256385
223	0x3f1a063d	0.6016577
224	0x3e24dcbc	0.16099828
225	0x3e9cf12e	0.30652755
226	0xbe31f7e3	-0.17379718
227	0x3e8d974c	0.27654493
228	0xbe8a4274	-0.27003825
229	0xbe9ca6f4	-0.30596125
230	0x3eab7ed9	0.33495215
231	0x3ed39d2f	0.4133086
232	0xbeebcc28	-0.46054196
233	0xbea77e0d	-0.32713357
234	0xbe80a3b0	-0.25124884
235	0x3f2fc35c	0.6865747
236	0x3eb05278	0.3443792
237	0x3ecc8fb1	0.39953378
238	0x3e4bb59f	0.19893502
239	0xbe9e9843	-0.3097554
240	0x3f1e0479	0.61725575
241	0x3ee2ca11	0.4429479
242	0x3e02d02e	0.12774727
243	0x3dea2acd	0.11433945
244	0xbd61a347	-0.055087354
245	0x3ed66ef5	0.41881528
246	0x3ea10650	0.3145013
247	0x3ec7adbe	0.38999742
248	0x3ebf9a4b	0.37422404
249	0x3f2368d9	0.6383186
250	0x3f137047	0.57593197
251	0x3f0c4dec	0.548064
252	0x3f78c610	0.9717722
253	0x3e75593c	0.23959821
254	0xbf5ecce3	-0.8703138
255	0x3f209d7b	0.62740296

l1.bias f4 [8]
0	0x3f01b6e8	0.5066972
1	0x3f5aa58e	0.85408866
2	0x3f133eaf	0.5751752
3	0x3ec2094d	0.3789772
4	0x3ec9de67	0.39427492
5	0x3f67c7b3	0.9053909
6	0x3f40e889	0.7535482
7	0x3efdd924	0.49579728

l2.weight f4 [8, 8]
0	0xbf9e7d81	-1.2382051
1	0x3f24b0bb	0.6433217
2	0x3f9a0ae8	1.2034578
3	0x3e98afd9	0.2982166
4	0xbfd8e3ee	-1.6944559
5	0x3f222870	0.6334295
6	0x3f3a4d14	0.7277386
7	0x3f9dbd81	1.2323457
8	0xbd11a2ec	-0.035555765
9	0xbf4dd869	-0.8040834
10	0x3fdba305	1.7159125
11	0x3f9681ae	1.1758325
12	0x3f986361	1.1905328
13	0x3f55e730	0.8355589
14	0x3e4266ca	0.18984523
15	0x3f214057	0.629888
16	0x3f0c5290	0.5481348
17	0x3eb93665	0.36174312
18	0xbeaf1093	-0.34192333
19	0x3fc69483	1.5514072
20	0x3caea0f9	0.021316992
21	0xbf1557c6	-0.58337057
22	0x400c3025	2.1904385
23	0xbf30cd9e	-0.69063747
24	0x3fa7d358	1.3111372
25	0x3f7dfdc9	0.9921537
26	0xbf98f19d	-1.1948735
27	0xbe67cb25	-0.22636087
28	0x3f4168d4	0.7555058
29	0x3ecff547	0.4061682
30	0xbea31574	-0.31852305
31	0x3fafe5eb	1.374204
32	0xbf55113c	-0.8322942
33	0x3fca8184	1.5820775
34	0x3f1460aa	0.5796
35	0xbeda8f83	-0.42687616
36	0xbe34e499	-0.17665328
37	0x3e861ba8	0.26192975
38	0x3f0559f2	0.5209037
39	0xbf854c20	-1.0413857
40	0x3f3e6e8b	0.74387425
41	0x3f8fc06e	1.12306
42	0xbf31fd95	-0.6952756
43	0xbed55509	-0.4166644
44	0xbee14202	-0.43995672
45	0x3f9012c2	1.1255724
46	0xbf1d6fde	-0.6149882
47	0x3fa2adee	1.2709329
48	0xbf4e7b28	-0.8065667
49	0x3d27569e	0.04085409
50	0xbf41a4d5	-0.7564214
51	0x3efca1f9	0.49342325
52	0x3f8e34fd	1.1109921
53	0x3fce19d2	1.610163
54	0x3e9dbac9	0.30806568
55	0xbf2ee2ef	-0.68315023
56	0xbf1d837e	-0.61528766
57	0x3e7bc0da	0.24585286
58	0xbf08418e	-0.5322503
59	0x3fd117cd	1.6335388
60	0x3e5502c9	0.20801844
61	0x3e81ba43	0.2533742
62	0x3ed114f3	0.40836295
63	0x3ce27523	0.027643746

l2.bias f4 [8]
0	0x3d99a096	0.075013325
1	0x3d185d4a	0.037198342
2	0x3f62b4dd	0.88557225
3	0xbdbf1810	-0.093307614
4	0x3f35e435	0.7105134
5	0x3f485b8a	0.7826468
6	0x3ef2590a	0.47333556
7	0xbf85d3d9	-1.0455276

l3.weight f4 [27, 8]
0	0x3ebd229d	0.3694047
1	0xbe01ffb0	-0.12695193
2	0x3e456d31	0.19279934
3	0xbebe9091	-0.3721967
4	0xbdbac06f	-0.09118735
5	0xbeb16736	-0.34649056
6	0xbe9d2ead	-0.30699673
7	0xc0302be1	-2.7526782
8	0xbf2dadf6	-0.6784357
9	0xbe83d4dc	-0.25748336
10	0xbea275be	-0.31730455
11	0xbf8bf22a	-1.0933278
12	0xbf042085	-0.5161212
13	0xbfdc9a9e	-1.7234685
14	0x3e7c2306	0.24622735
15	0x3f4be9a4	0.7965338
16	0xc014ed6e	-2.3269916
17	0x3ee95cc2	0.4557858
18	0xbf05aa5e	-0.52213085
19	0xbf024030	-0.5087919
20	0xc01dcc52	-2.4655957
21	0xbfe7d2c2	-1.8111193
22	0x3ec6b426	0.38809317
23	0x3e5e9215	0.21735413
24	0xbf2acf0c	-0.6672218
25	0xbe79ba68	-0.24387515
26	0x3e0753d0	0.13215566
27	0x3e2f60ef	0.17126821
28	0xc047e846	-3.1235518
29	0xbee301d7	-0.4433734
30	0xbf1c17ef	-0.6097402
31	0xbe49a7b2	-0.19692877
32	0x3d4e61ff	0.050386425
33	0xc01451b6	-2.3174872
34	0xbfc9e901	-1.5774232
35	0x3e59e414	0.21278411
36	0x3ec51804	0.38494885
37	0x3f2cdf90	0.6752863
38	0xbf080a2e	-0.5314053
39	0xbffc5d35	-1.9715945
40	0xbfaea589	-1.3644267
41	0x3cb012f8	0.02149342
42	0x3f107094	0.5642178
43	0xc00e4fcb	-2.2236202
44	0xc004e848	-2.0766773
45	0xc03c14f6	-2.9387794
46	0x3e6d23af	0.23158143
47	0x3e4e54c1	0.20149519
48	0xbf896289	-1.0733196
49	0xbfb5dec8	-1.4208612
50	0x3d0fb993	0.035089087
51	0xbec2bec0	-0.38036156
52	0x3e04814d	0.1293995
53	0xbf1bd416	-0.6087049
54	0x3ef60475	0.48050275
55	0x3e1fe892	0.15616062
56	0x3e7d5728	0.24740279
57	0xbf95ec80	-1.1712799
58	0xbf912b62	-1.1341364
59	0x3f36601a	0.7124039
60	0xc017837c	-2.3674002
61	0x3f258640	0.64657974
62	0xbfdacc1f	-1.7093543
63	0xc023853b	-2.5550067
64	0xc0081f25	-2.126901
65	0xbf158038	-0.5839877
66	0x3ecdf3f9	0.402252
67	0xbced4c2c	-0.028966986
68	0xbfb8c575	-1.4435259
69	0xbfd666e4	-1.675015
70	0x3e3b2700	0.18276596
71	0x3e9acb1d	0.30233088
72	0xbe5a6563	-0.21327738
73	0xbf954453	-1.1661476
74	0x3f032b95	0.51238376
75	0xbfa4a52e	-1.2862909
76	0xbeb44172	-0.3520618
77	0xbf862f9d	-1.048328
78	0xbfb91ba7	-1.4461564
79	0x3f928dab	1.1449484
80	0x3dd6c373	0.10486498
81	0xc02c60ab	-2.6934001
82	0xbeaa1a2a	-0.33223087
83	0xbe363818	-0.17794836
84	0x3eaac9a0	0.33356953
85	0x3ddfe612	0.10932554
86	0xbd8b6589	-0.06806476
87	0xbe0d0e85	-0.1377507
88	0x3e149b37	0.14512335
89	0xbf7f19b2	-0.9964858
90	0xc02a4df5	-2.6610081
91	0xbde91b51	-0.11382163
92	0xbeec8aa1	-0.46199515
93	0x3e03bcf9	0.12865056
94	0x3ea8c023	0.3295909
95	0xbe391c47	-0.18077193
96	0xc0526921	-3.2876666
97	0x3e9d1a14	0.3068396
98	0x3eb20fbd	0.34777632
99	0xbe6c1af7	-0.23057161
100	0x3e8f3fa0	0.2797823
101	0xbf89547a	-1.0728905
102	0xbec4e646	-0.38456935
103	0xbfab3fa7	-1.33788
104	0xbffc87a7	-1.9728898
105	0xbfa3fffc	-1.2812495
106	0x3f7edc77	0.9955515
107	0x3ea6bfaf	0.32568118
108	0xbe96e14a	-0.29468757
109	0xbe6b553d	-0.22981735
110	0xbff29c63	-1.8953975
111	0xbebb598c	-0.36591756
112	0x3f1a2bba	0.6022297
113	0xbef67c0b	-0.48141512
114	0xc02dc11e	-2.714912
115	0xbfdb87cb	-1.7150816
116	0x3fa07900	1.2536926
117	0xbee5eac0	-0.44905663
118	0xc048ba87	-3.1363847
119	0xbfc49b56	-1.5359905
120	0x3f1372ea	0.5759722
121	0xbe8e9078	-0.27844596
122	0xbf2f89a4	-0.685694
123	0xbe01a2e0	-0.12659788
124	0xbfc5822f	-1.5430354
125	0xbc71b256	-0.014751991
126	0xc06d1b1c	-3.7047796
127	0x3ee6e92d	0.45099774
128	0xbe2a80ab	-0.16650645
129	0x3d2bc3dc	0.041934833
130	0xbcb2b9f0	-0.021817178
131	0xbfc31a5d	-1.524242
132	0x3ddd3d70	0.10802734
133	0xbd766030	-0.060150325
134	0x3f328756	0.69737756
135	0xc0262f00	-2.5966187
136	0xc019c1d9	-2.4024565
137	0xbf364c82	-0.7121049
138	0xbc1dbdc0	-0.009627759
139	0x3e9e2345	0.30886284
140	0xbf3a6b49	-0.72819954
141	0x3f46a67f	0.775978
142	0x3f335bf6	0.70062196
143	0xc048c6ac	-3.137126
144	0xbf102bcd	-0.56316835
145	0xbe33a0a5	-0.1754175
146	0xbfa24404	-1.2677007
147	0x3e80b251	0.25136045
148	0xbf1e5eef	-0.6186361
149	0xbf2854fb	-0.6575467
150	0x3dae76af	0.08518731
151	0x3cac531c	0.021035723
152	0x3f0842b3	0.53226775
153	0xbf2e16c0	-0.68003464
154	0xc0426532	-3.0374265
155	0xbdba92e2	-0.09110047
156	0x3d178b4a	0.03699807
157	0x3ee56ac8	0.4480803
158	0xc00e7390	-2.2258034
159	0xbfb5986c	-1.418714
160	0x3e3ee528	0.18642104
161	0xbeb1fe5c	-0.34764373
162	0x3e0de8dd	0.13858362
163	0xbfb522f3	-1.4151291
164	0x3ea3af89	0.3196986
165	0xbc5726d1	-0.013131813
166	0xbce2e840	-0.027698636
167	0xbfcaac77	-1.5833882
168	0xbfac9d4a	-1.3485501
169	0x3f1eb9ef	0.6200246
170	0xbfcd9ac9	-1.6062862
171	0x3f0cee80	0.5505142
172	0xbff32a41	-1.899727
173	0x3e29349e	0.16523978
174	0xc001e711	-2.0297282
175	0xbfa8a1a0	-1.3174324
176	0xc00f259e	-2.236671
177	0xc042a969	-3.04159
178	0xbe8fc59d	-0.28080454
179	0x3f7d3a44	0.9891703
180	0x3e80bbce	0.25143284
181	0x3f34fece	0.707013
182	0xc01a890c	-2.4146147
183	0xbfd85f2f	-1.6904048
184	0x3ef46a47	0.47737333
185	0x3e903c34	0.2817093
186	0xc01cfd65	-2.452966
187	0xbe3d8011	-0.18505885
188	0xc0180d84	-2.375825
189	0x3e4b1980	0.19833946
190	0xbfa2c916	-1.2717617
191	0xbfb17c69	-1.3866092
192	0xbfcd9355	-1.6060587
193	0x3ed8b12e	0.42322677
194	0x3f46604c	0.7749069
195	0xbea7568b	-0.32683215
196	0xc005301b	-2.0810611
197	0xbfe25423	-1.7681926
198	0xbff61a8a	-1.9226849
199	0xbe7151e5	-0.23566397
200	0xbe09e70c	-0.13467044
201	0xc073f071	-3.8115504
202	0x3f90efc1	1.1323167
203	0xbf8b7cf4	-1.0897508
204	0x3f495016	0.78637826
205	0xbf3acbc9	-0.729672
206	0x3e351aa6	0.17685947
207	0xbec2ed2e	-0.3807158
208	0x3f321563	0.69563884
209	0x3ed020d0	0.40650034
210	0x3e7ed5a1	0.2488618
211	0xc0033ab5	-2.0504582
212	0xc01fbe2a	-2.4959817
213	0xc03029ac	-2.7525434
214	0xc01cbe10	-2.4491005
215	0xbf20834a	-0.6270033

l3.bias f4 [27]
0	0x3d82c693	0.06385531
1	0xbf0593b8	-0.52178526
2	0x3e10d01f	0.14141892
3	0xbdcfad0e	-0.101404294
4	0xbf1af4c0	-0.6052971
5	0x3e20393c	0.15646833
6	0xbf5d0834	-0.8634064
7	0xbea018ad	-0.31268826
8	0xbde0c605	-0.10975269
9	0xbf47919d	-0.77956563
10	0xbf3aa6be	-0.7291068
11	0xbec23f07	-0.3793871
12	0xbda9f9b2	-0.08299579
13	0xbe555084	-0.20831496
14	0xbdd08ef4	-0.10183516
15	0xbf0e9536	-0.5569643
16	0x3e78a175	0.24280341
17	0x3f04f6e4	0.51939225
18	0xbf362715	-0.71153384
19	0x3e23db8f	0.16001724
20	0x3e19a438	0.1500405
21	0x3e2f99e3	0.17148547
22	0x3ecb8e9a	0.39757234
23	0x3da92b12	0.08260168
24	0x3e90a95b	0.28254208
25	0x3e3afecd	0.18261261
26	0x3e237226	0.15961513
